policy.pth (torch_old, 236395 bytes, 12 tensors)

fc1.weight f4 [256, 33]
0	0x3e24f129	0.1610762
1	0xba86e11f	-0.001029048
2	0x3d883f4c	0.06652698
3	0xbcc6e927	-0.024281098
4	0x3de99ad9	0.11406488
5	0xbe2445c9	-0.16042246
6	0x3d75294a	0.05985383
7	0xbd401f9e	-0.046905152
8	0xbdc9cc4d	-0.098534204
9	0xbdedcd84	-0.116114646
10	0xbdd46d80	-0.10372448
11	0x3e1cd5a3	0.15315871
12	0x3adc4e52	0.0016808009
13	0xbd00b363	-0.031421077
14	0x3d928e8e	0.071560964
15	0x3d801d3c	0.06255576
16	0xbe144423	-0.14479117
17	0xb9221140	-0.0001545595
18	0x3cd7cf27	0.026343895
19	0x3d05a9fe	0.03263282
20	0x3e2db233	0.16962509
21	0x3d9dc03a	0.0770268
22	0xbdddd9e4	-0.10832575
23	0xbdc838cb	-0.097764574
24	0x3da736d5	0.08164755
25	0x3e4024b7	0.18764006
26	0xbc5bd84b	-0.0134182675
27	0x3d24e593	0.040258
28	0x3c6e78e6	0.014555192
29	0x3d5134b0	0.051075637
30	0xbd42d633	-0.047567558
31	0x3c8a396c	0.016873084
32	0x3edb0121	0.427743
33	0x3dec2f45	0.115324534
34	0xbde44355	-0.11145655
35	0xbe156d5a	-0.14592496
36	0xbb9602f5	-0.004577989
37	0x3dc56bb3	0.096396826
38	0x3d396909	0.045266185
39	0xbc928af4	-0.017888524
40	0x3cc13e2a	0.023589212
41	0xbe1fd58c	-0.15608805
42	0x3baf576e	0.0053509986
43	0x3ca883d2	0.02057067
44	0xbc892700	-0.01674223
45	0xbd3a5471	-0.045490686
46	0xbe36c6ed	-0.17849322
47	0x3c9a69f7	0.018849356
48	0x3d04f3f8	0.03245923
49	0x3dac88db	0.084245406
50	0xbcab5255	-0.020913282
51	0xbdcfac98	-0.101403415
52	0x3cd6ef13	0.026237046
53	0xbcdd2b21	-0.026998105
54	0xbd0acd2a	-0.033887066
55	0x3c8cb36c	0.017175399
56	0xbdf9f408	-0.122047484
57	0xbd3ce63d	-0.04611801
58	0x3d31f7a3	0.043449055
59	0x3d982d14	0.07430473
60	0xbdccc1be	-0.09997891
61	0xbd8cb5d6	-0.0687062
62	0xbd59ee6c	-0.053205892
63	0x3d903610	0.070415616
64	0xbacdbd80	-0.0015696734
65	0xbc01411d	-0.007889059
66	0x3d10b6d4	0.03533061
67	0x3dbdb9b1	0.092639334
68	0xbd8a2aa4	-0.06746414
69	0xbc1b9ac9	-0.009497353
70	0x3d56cb03	0.0524397
71	0x3d24ce1b	0.04023562
72	0xbcc9bcce	-0.024626162
73	0x3ba565e8	0.0050475486
74	0xba51bfd7	-0.00080013036
75	0xbc0b4bf9	-0.008502
76	0xbd0dd4ea	-0.03462688
77	0xbc2834e9	-0.010266521
78	0xbc936119	-0.017990636
79	0xbe232170	-0.15930724
80	0xbe54cade	-0.20780513
81	0x3dd7aff2	0.10531606
82	0x3cb36f1c	0.021903567
83	0xbcee24c8	-0.029070273
84	0xbdcd6a4e	-0.10030042
85	0x3cc08121	0.023499073
86	0x3d1e8c86	0.038708232
87	0xbe0a63fe	-0.13514706
88	0x3bd86b59	0.0066045937
89	0x3d118d52	0.035535164
90	0xbd2ee62b	-0.042699974
91	0xbcbe4b87	-0.023229374
92	0x3ddfd066	0.10928421
93	0x3cdd0cae	0.026983585
94	0xbba64056	-0.0050735874
95	0x3cc1685c	0.023609333
96	0x3c675b98	0.014120959
97	0xbd7981cc	-0.0609148
98	0x3e30363a	0.17208186
99	0x3d656ca7	0.056011822
100	0xbd54377a	-0.05181072
101	0x3dd507a2	0.104018465
102	0x3dc0a284	0.094059974
103	0x3e36fa61	0.1786895
104	0xbe11e69a	-0.14248124
105	0xbdb0376c	-0.08604321
106	0x3dbc3d19	0.09191341
107	0xbb8bfafa	-0.004271862
108	0xbd99dd0f	-0.07512867
109	0x3b3d24e5	0.0028861102
110	0x3e2f2abd	0.17106147
111	0xbc71e945	-0.014765088
112	0xbdf509e5	-0.11964778
113	0x3ded94a0	0.116006136
114	0xbdbbaef0	-0.09164226
115	0xbd4fec4a	-0.050762452
116	0xbd670ab0	-0.056406677
117	0xbdc4cfb7	-0.09609931
118	0xbccfdf23	-0.025374955
119	0xbde3f254	-0.11130205
120	0x3cdde97b	0.027088871
121	0x3d8bb367	0.06821328
122	0xbcfb44fd	-0.030672545
123	0xbd0ae77c	-0.033912167
124	0xbba4d42c	-0.0050301757
125	0xbc8ec9de	-0.017430242
126	0xbc1e208c	-0.0096513145
127	0x3db89f7f	0.090147965
128	0x3a992180	0.0011682957
129	0x3d183a9b	0.037165266
130	0xbd3c2fcc	-0.04594402
131	0x3f11f6fb	0.5701749
132	0x3e07e6ca	0.13271633
133	0xbb05018b	-0.002029511
134	0xbd6c0473	-0.05762143
135	0xbcd1d8a4	-0.025615998
136	0xbc125c35	-0.008933117
137	0xbcc2f667	-0.023799134
138	0x3c6b152a	0.014348308
139	0xbd61c586	-0.055120014
140	0xbe333e96	-0.17504343
141	0x3dbf1cca	0.09331663
142	0x3d39e09a	0.045380212
143	0x3c746f9a	0.014919186
144	0x3c8946fb	0.016757479
145	0x3ca6c591	0.020357879
146	0x3cfb78eb	0.030697307
147	0x3e16da2d	0.14731665
148	0x3cc1499e	0.023594674
149	0x3d91919a	0.071078494
150	0x3d0d438c	0.034488246
151	0x3d99faa6	0.075185105
152	0xbd272fc6	-0.040817045
153	0x3bacbe11	0.005271681
154	0x3df2b493	0.11850848
155	0x3d8214b9	0.06351609
156	0xbdbc9697	-0.0920841
157	0xbd47dc3f	-0.048794027
158	0x3a723dc2	0.000924077
159	0xbc54d891	-0.012991087
160	0xbde4bae0	-0.11168456
161	0xbd28e990	-0.041238368
162	0x3c51a684	0.012796048
163	0xbcdfed0c	-0.027334712
164	0x3ebbf8ed	0.36713353
165	0xbcab3550	-0.020899445
166	0xbd796fee	-0.06089776
167	0xbbd608a9	-0.006531794
168	0xbb444a0a	-0.0029951357
169	0x3b4f0d0b	0.0031593468
170	0xbe267ca0	-0.16258478
171	0x3d022875	0.031776864
172	0xbd1c3ae6	-0.038142107
173	0xbe159651	-0.14608122
174	0xbdafe620	-0.08588815
175	0x3c09303a	0.0083733145
176	0x3d63707f	0.055527207
177	0xbd994375	-0.074835695
178	0x3dad649f	0.084664576
179	0x3e192675	0.14956076
180	0x3a9c31a4	0.001191665
181	0x3de5f67e	0.11228655
182	0xbcc39107	-0.023872865
183	0xbd608957	-0.054818477
184	0xbd143998	-0.03618774
185	0xbd60352d	-0.054738212
186	0xbdbe26d1	-0.092847474
187	0xbdf81b21	-0.121145494
188	0xbca5d6a3	-0.020243948
189	0x3d0ea87d	0.03482865
190	0xbd2ecd5e	-0.042676322
191	0xbcddac8b	-0.027059814
192	0xbde5881f	-0.11207604
193	0xbdff1be7	-0.12456494
194	0x3be74440	0.0070576966
195	0x3de90e4e	0.113796815
196	0xbd6fddcc	-0.05856113
197	0x3eb85075	0.35998884
198	0xbd729091	-0.0592199
199	0x3c4a82c7	0.012360281
200	0x3d01efaa	0.031722702
201	0xbccd4f36	-0.025062185
202	0x3c937d9f	0.018004237
203	0xbc4213ac	-0.01184551
204	0xbd853db7	-0.06505912
205	0x3db09d01	0.08623696
206	0xbcf2e7e9	-0.029651599
207	0x3de1b9f8	0.11021799
208	0x3d0f22dd	0.034945358
209	0x3c1e1705	0.009649043
210	0xbde41040	-0.11135912
211	0xbd662f4f	-0.05619746
212	0x3bcd59a9	0.006266792
213	0xbe117084	-0.14203078
214	0xbd9165cd	-0.07099495
215	0x3d65ffb3	0.056152057
216	0xbd9409f6	-0.072284624
217	0x3d9196f2	0.07108869
218	0x3cce8c86	0.025213491
219	0x3c3fb1ab	0.011700074
220	0xbb4d81f8	-0.0031357985
221	0xbd6c5966	-0.057702444
222	0xbca58de8	-0.020209268
223	0x3d69114e	0.05690127
224	0xbc7cb69c	-0.015424397
225	0x3cd31dd5	0.025771061
226	0x3d06281d	0.0327531
227	0x3d74d802	0.059776314
228	0xbdb19e03	-0.086727165
229	0xbc3afef8	-0.011413328
230	0x3ef5f0a6	0.48035163
231	0xbb9859f9	-0.0046493975
232	0x3cc82753	0.024432814
233	0x3d37043d	0.044681776
234	0x3d819383	0.06326964
235	0x3d6dbc46	0.05804088
236	0x3db0d5cd	0.08634529
237	0xbd427a98	-0.047480196
238	0xbd6075fe	-0.054800026
239	0xbd4a43a0	-0.0493809
240	0x3c3743a2	0.0111855585
241	0xbbdb8e1e	-0.0067002913
242	0x3e0d469a	0.13796464
243	0x3dc4a333	0.0960144
244	0x3e289f01	0.16466905
245	0x3b8581ef	0.004074327
246	0x3d5794ff	0.052632328
247	0x3cf92b72	0.030416224
248	0xbac6e5f1	-0.0015174729
249	0x3e3a4a04	0.18192297
250	0x3e361518	0.17781484
251	0x3c0e25ab	0.008675973
252	0x3d76101e	0.060073964
253	0x3ddc1f30	0.10748136
254	0x3d894020	0.06701684
255	0x3e06dc1b	0.13169901

fc1.bias f4 [256]
0	0x3d6520ca	0.055939473
1	0xbd981786	-0.07426362
2	0xbe22f6ea	-0.15914503
3	0xbd8678f0	-0.06566036
4	0xbd9f1461	-0.07767559
5	0xbdc02c0d	-0.09383402
6	0xbe094192	-0.1340392
7	0xbe4983ca	-0.1967918
8	0xbcc66f2a	-0.024222929
9	0xbe3fd3e4	-0.18733174
10	0x3db1cb24	0.08681324
11	0x3d91f042	0.07125904
12	0xbdda4531	-0.106577285
13	0x3e1fdc08	0.15611279
14	0xbd39dc44	-0.045376077
15	0xbd8a89b8	-0.06764549
16	0xbdea5cac	-0.11443457
17	0x3e015d06	0.12633142
18	0x3c75991b	0.0149901165
19	0x3c2e6bf8	0.010645859
20	0x3db1fae6	0.08690433
21	0x3e1de1ae	0.15418121
22	0x3d3f8262	0.046755202
23	0x3d304550	0.04303485
24	0x3dfe324b	0.12411936
25	0xbe10e004	-0.14147955
26	0xbdd08cbe	-0.101830944
27	0xbd0d16b3	-0.034445476
28	0xbd5f79b7	-0.054559436
29	0x3c6338aa	0.01386849
30	0x39f017bc	0.0004579405
31	0xbe54e8dc	-0.20791954
32	0xbd64a301	-0.055819515
33	0xbdc09d32	-0.094049826
34	0x3e2172cb	0.15766446
35	0xbd8d322c	-0.06894335
36	0xbe0723be	-0.13197228
37	0x3deada3a	0.11467405
38	0x3dab1e7b	0.08355423
39	0x3dc07d1e	0.09398864
40	0xbe3b36c7	-0.18282615
41	0x3d5bb574	0.053639844
42	0x3d872f68	0.06600839
43	0xbd8f37a6	-0.06993036
44	0x3de66b49	0.11250932
45	0x3e20aff6	0.15692124
46	0x3d4c38a4	0.049858704
47	0xbcaae5ae	-0.020861473
48	0x3cab37e5	0.020900676
49	0x3cb61200	0.02222538
50	0x3d7f8bfe	0.062389366
51	0xbc55369c	-0.013013508
52	0x3d3571fa	0.04429815
53	0x3d8b94db	0.06815501
54	0x3ce651a5	0.028115103
55	0x3b2012e7	0.002442533
56	0xbdba2b53	-0.09090295
57	0x3de55321	0.11197496
58	0x3e0db7e2	0.13839677
59	0xbe407cc0	-0.18797588
60	0xbe03c9e6	-0.12869987
61	0xbda47281	-0.080296524
62	0x3db1223e	0.08649109
63	0xbde12676	-0.10993664
64	0x3d36ff3e	0.04467701
65	0xbdb8dc38	-0.090263784
66	0xbdec9ffb	-0.11553951
67	0xbda991e1	-0.08279777
68	0xbd9a53a9	-0.07535488
69	0xbb680468	-0.0035403017
70	0xbc2bc283	-0.010483387
71	0xbdcb351a	-0.09922238
72	0xbe10937d	-0.14118762
73	0x3dfa65ab	0.12226423
74	0x3c813591	0.015772613
75	0x3d033695	0.032034475
76	0xbce97945	-0.028500209
77	0xbc8efbae	-0.017453995
78	0x3d920a81	0.0713091
79	0x3e1e65e3	0.15468554
80	0x3e2854e3	0.16438632
81	0xbe678e61	-0.22612907
82	0x3c9e666a	0.019335944
83	0x3cac8b51	0.021062525
84	0x3cad62bd	0.021165246
85	0xbd5c0ebd	-0.053724993
86	0xbcb58189	-0.022156494
87	0xbe0e115e	-0.13873813
88	0xbdcbe7bc	-0.09956309
89	0x3dcf0079	0.10107512
90	0x3de06553	0.10956826
91	0xbda32a02	-0.07966997
92	0x3db9247f	0.09040164
93	0x3dd46383	0.10370543
94	0x3e1d48b2	0.15359762
95	0xbded6689	-0.11591823
96	0x3de64bdc	0.11244938
97	0x3d9edc04	0.077568084
98	0x3a73c335	0.00092988025
99	0xbdeb8f91	-0.115019925
100	0xbe4fa95d	-0.2027945
101	0xbd88c862	-0.06678845
102	0x3d1de76e	0.038550787
103	0x3cd711f9	0.026253687
104	0x3e5bddec	0.21471375
105	0x3e1dbe90	0.15404725
106	0xbdc15a6d	-0.094410755
107	0xbe0ce6c6	-0.13759908
108	0x3db839e1	0.089954145
109	0xbde175f4	-0.11008826
110	0x3e0cc319	0.13746299
111	0xbdf62dc5	-0.120204486
112	0x3d81dccf	0.06340944
113	0xbca216ed	-0.019786322
114	0x3d9e55c6	0.07731204
115	0xbd75832e	-0.059939556
116	0xbcd07256	-0.025445145
117	0xba7b00c7	-0.0009575006
118	0xbe0ac54a	-0.13551822
119	0x3dac654c	0.08417758
120	0xbe15e599	-0.14638366
121	0x3d8323b0	0.06403291
122	0x3b17d3b1	0.002316695
123	0xbdac2785	-0.08405975
124	0x3e56cff8	0.20977771
125	0xbe117a70	-0.14206862
126	0xbd36f3ac	-0.044665977
127	0x3c99b2bd	0.018761987
128	0x3b66a5e9	0.0035194105
129	0x3e636364	0.22205883
130	0xbda51a24	-0.080616266
131	0xbdca4cf9	-0.098779626
132	0x3d7fb4f6	0.062428437
133	0xbe07af4a	-0.13250461
134	0xbe1e9868	-0.15487826
135	0xbd896189	-0.067080565
136	0xbd3f9601	-0.046773914
137	0x3d8a9e2a	0.06768449
138	0xbe0c2f75	-0.13689978
139	0xbd2b1dc4	-0.041776434
140	0xbd5e4369	-0.054263506
141	0x3e3d1ab0	0.18467212
142	0x3d7c7343	0.06163336
143	0xbd2c6c2a	-0.04209534
144	0xbb2c5e3d	-0.0026301288
145	0xbdd1a131	-0.10235823
146	0x3c13c8c2	0.009020032
147	0x3cd938ff	0.026516436
148	0xbcf4317e	-0.029808756
149	0xbdd440c0	-0.103639126
150	0xbdc73026	-0.097259805
151	0xbc1a606b	-0.009422402
152	0x3c824a1a	0.015904475
153	0x3dbe47b3	0.09291019
154	0x3d189139	0.03724787
155	0xbdfd84f3	-0.12378874
156	0x3e13c934	0.14432222
157	0xbe227c8c	-0.15867823
158	0x3dccdde3	0.10003259
159	0x3d92e463	0.071724676
160	0x3cf46bba	0.029836524
161	0x3db87bc4	0.090079814
162	0x3d948343	0.07251599
163	0xbdcd8a34	-0.10036126
164	0x3beacd01	0.0071655517
165	0xbe06704e	-0.13128778
166	0x3db1929b	0.08670541
167	0xbc2ffbfb	-0.010741229
168	0xbdedd15e	-0.11612199
169	0x3d80ffa5	0.0629876
170	0xbe0a8603	-0.13527684
171	0x3d2d5915	0.042321283
172	0xbd286db5	-0.04112025
173	0x3d5f1a64	0.054468527
174	0xbd82465b	-0.063610755
175	0x3e0ba5a5	0.13637407
176	0xbe2bd2eb	-0.16779678
177	0xbe45c9c8	-0.19315255
178	0x3e2028cb	0.15640561
179	0xbda35d13	-0.07976737
180	0xbcebe8b8	-0.028797492
181	0xbe62c325	-0.22144754
182	0xbd02c58c	-0.031926677
183	0xbd549f5c	-0.05190979
184	0x3bc65c6f	0.0060534994
185	0xbc30e030	-0.010795638
186	0xbd071358	-0.032977432
187	0x3db1edf7	0.08687966
188	0x3d57c3ee	0.052677087
189	0x3e3bede7	0.18352471
190	0x3dfa5dee	0.12224947
191	0x3dfd6ffe	0.123748764
192	0x3e234003	0.15942387
193	0x3d7b460e	0.061346106
194	0xbd037234	-0.032091334
195	0xbd5d225b	-0.053987842
196	0xbcc94c11	-0.024572404
197	0xbdd3cc31	-0.10341681
198	0xbe27a5f0	-0.16371894
199	0x3d1cceb4	0.038283065
200	0xbdf8d488	-0.12149912
201	0xbe24a944	-0.16080195
202	0xbcd70211	-0.026246103
203	0x3e318a26	0.17337856
204	0xbd473b06	-0.048640274
205	0x3e3c1546	0.1836749
206	0xbe0352ce	-0.12824556
207	0x3dd0fbaa	0.10204251
208	0xbe127382	-0.14301875
209	0x3da8a6c9	0.08234937
210	0x3ca754ee	0.02042624
211	0xbe55b0d9	-0.20868243
212	0xbdd1791a	-0.102281764
213	0x3d629116	0.055314146
214	0xbe056865	-0.13028105
215	0x3defca77	0.11708539
216	0xbdb471c9	-0.08810765
217	0x3d0315f3	0.032003354
218	0xbe5ffa49	-0.2187282
219	0xbe300e5d	-0.17192979
220	0xbe104a45	-0.14090832
221	0xbd27facd	-0.041010667
222	0x3bc23b78	0.0059274994
223	0x3dcfcd82	0.101466194
224	0xbd0e70cc	-0.03477554
225	0xbc8f660c	-0.017504714
226	0x3d9d57ca	0.0768276
227	0x3d71fde9	0.05908004
228	0x3d8e2282	0.069401756
229	0x3e42fd33	0.190419
230	0x3be5bfb4	0.007011378
231	0x3d89468a	0.067029074
232	0xbd91ed58	-0.07125348
233	0x3e138546	0.14406309
234	0xbe566ffe	-0.20941159
235	0x3cc7f918	0.02441077
236	0x3e09a1ba	0.134406
237	0xbdac360b	-0.084087454
238	0x3bf63b8c	0.0075144228
239	0x3e53cf05	0.2068444
240	0x3e18ada8	0.14909995
241	0x3d5d8b52	0.054087944
242	0x3dae18cc	0.085008234
243	0xbcea74f5	-0.028620223
244	0xbd3e8874	-0.04651685
245	0xbe31c64c	-0.173608
246	0x3c62cd1e	0.013842849
247	0x3e430f96	0.19048914
248	0xbd1364ae	-0.035984688
249	0x3dc11644	0.09428075
250	0xbd60e392	-0.054904528
251	0x3d8a3531	0.06748427
252	0x3e125aa3	0.14292388
253	0xbd604180	-0.054749966
254	0x3da9c921	0.082903154
255	0xbd9df29c	-0.0771229

fc2.weight f4 [128, 256]
0	0x3e1047a1	0.14089824
1	0x3e13859c	0.14406437
2	0xbe5b2b29	-0.21403183
3	0x3e0630b2	0.13104513
4	0xbd322377	-0.043490853
5	0xbe65c721	-0.22439243
6	0x3e37f338	0.17963874
7	0xbe6a210f	-0.22864173
8	0xbdf8f248	-0.121555865
9	0xbd96c5a9	-0.073619194
10	0x3cad5b27	0.021161629
11	0x3e045e20	0.12926531
12	0xbe38f245	-0.18061168
13	0x3c3cee06	0.011531359
14	0xbdbe77ff	-0.09300231
15	0xbbff5ade	-0.0077928146
16	0xbdf57457	-0.11985081
17	0xbc230d31	-0.009951876
18	0xbdc2ae34	-0.09505883
19	0x3db6ebbe	0.08931683
20	0xbc545d32	-0.012961673
21	0xbd4335cc	-0.047658727
22	0xbde934a2	-0.11386992
23	0xbe727715	-0.23678239
24	0xbe556492	-0.20839146
25	0xbd28e67f	-0.041235443
26	0xbd9bc2e5	-0.076055326
27	0xbb2e6b3e	-0.0026614214
28	0xbd80cb89	-0.06288821
29	0x3d13e046	0.036102556
30	0xbdfecf01	-0.124418266
31	0x3d994752	0.074843064
32	0x3e184cac	0.14872998
33	0x3d452d07	0.048138645
34	0xbd3bd314	-0.045855597
35	0xbd814ab8	-0.063130796
36	0x3dc7bc56	0.09752719
37	0xbdecd489	-0.11563975
38	0x3bdc6251	0.0067255874
39	0xbe14e668	-0.14541018
40	0xbe2f743c	-0.17134184
41	0x3e7afcce	0.245105
42	0xbdf6aa08	-0.1204415
43	0x3c5a37fa	0.01331901
44	0xbd4027af	-0.046912845
45	0xbd2395da	-0.03993783
46	0xbb1b3489	-0.0023682436
47	0xbe2bcfe5	-0.16778524
48	0xbd846725	-0.06464986
49	0x3d8110f3	0.06302061
50	0x3db66d0b	0.08907517
51	0x3eb13714	0.34612334
52	0xbceece45	-0.029151091
53	0x3cfc461c	0.03079515
54	0x3d826e4b	0.06368693
55	0xbe0dae2a	-0.1383597
56	0xbe8ba3e6	-0.27273482
57	0xbc5d39d7	-0.01350256
58	0xbe00936d	-0.12556238
59	0xbe063d1c	-0.13109249
60	0x3d94162b	0.07230791
61	0xbc75a7a7	-0.014993585
62	0x3d7b23c6	0.061313413
63	0x3d425259	0.047441814
64	0x3dcd6c19	0.100303836
65	0x3de3ff33	0.1113266
66	0xbc3d0c92	-0.0115386415
67	0xbd00e103	-0.031464588
68	0xbcdf69b4	-0.027272083
69	0xbc1867ac	-0.009302061
70	0xbda2580e	-0.07926951
71	0xbde6c603	-0.112682365
72	0x3e8a66ea	0.27031642
73	0xbc494de7	-0.01228664
74	0xbda820bc	-0.082093686
75	0x3e2157ec	0.15756196
76	0x3c99d48e	0.018778112
77	0x3e00b5b6	0.12569317
78	0xbb1ef0f7	-0.0024252513
79	0x3dce67f4	0.10078421
80	0xbc56ac24	-0.013102565
81	0xbcf80973	-0.030277943
82	0x3e134341	0.14381124
83	0x3da53207	0.080661826
84	0x3cd72f3b	0.026267638
85	0xbdb14a03	-0.08656695
86	0x3e6403e4	0.22267109
87	0xbd521623	-0.051290642
88	0xbdb5c65d	-0.088757254
89	0xbe027244	-0.12738901
90	0x3c079c74	0.008277047
91	0x3e37737c	0.17915148
92	0x3a2c21a1	0.00065662904
93	0xbd4227de	-0.0474013
94	0x3d910fc5	0.07083086
95	0xbce72459	-0.028215574
96	0xbced3e6b	-0.028960427
97	0x3dd9a11b	0.106264316
98	0x3dbac1fb	0.0911903
99	0xbe1d0878	-0.15335262
100	0xbe06053a	-0.13087931
101	0xbe27386a	-0.16330114
102	0xbd82a66c	-0.06379399
103	0xbceb399d	-0.028713996
104	0x3cbbcfb5	0.02292619
105	0xbe579176	-0.21051583
106	0x3d115e60	0.035490394
107	0x3c43ea3a	0.011957699
108	0xb999ffa5	-0.00029372904
109	0xbdbc9c12	-0.092094555
110	0x3e4b6186	0.19861421
111	0xbd34e1fa	-0.04416082
112	0xbe2e30d1	-0.1701081
113	0x3d86ef9c	0.065886706
114	0xbddc2d0f	-0.10750782
115	0x3d49dce0	0.04928291
116	0xbb2dcb9c	-0.0026519066
117	0x3d946fd9	0.07247896
118	0xbe437f61	-0.1909156
119	0xbd37a201	-0.044832233
120	0xbd3b00c3	-0.045655023
121	0xbd473cd2	-0.048641987
122	0x3cddc8d9	0.02707331
123	0xbe102ad5	-0.14078839
124	0x3caad40c	0.020853065
125	0x3db4ace2	0.08822037
126	0x3e3f4aa8	0.18680823
127	0xbded5df0	-0.11590183
128	0xbe8b549b	-0.27212986
129	0xbd9bb628	-0.07603103
130	0xbc9b236c	-0.018937789
131	0x3d0a5f53	0.033782315
132	0x3d51a10f	0.051178988
133	0xbbe7def2	-0.0070761377
134	0xbd016ec6	-0.031599782
135	0xbdad21ef	-0.08453738
136	0xbddd93f6	-0.10819237
137	0xbe872179	-0.26392725
138	0x3cf1d9ef	0.029522864
139	0xbd92a08f	-0.0715953
140	0x3d48300b	0.048873942
141	0x3d88474b	0.06654223
142	0x3e821045	0.25403038
143	0xbe8394ce	-0.25699466
144	0x3d56283e	0.05228447
145	0x3d1862bf	0.037203547
146	0x3d290237	0.041261878
147	0xbcd78234	-0.026307203
148	0x3df4d62b	0.11954912
149	0x3e695eee	0.22790119
150	0xbe069195	-0.13141473
151	0xbdd21e6f	-0.10259711
152	0xbe127af0	-0.1430471
153	0xbd2f73b7	-0.042834964
154	0xbd7c42f2	-0.06158728
155	0x3e2bad21	0.16765262
156	0xbd2f7b59	-0.042842243
157	0x3d47aa51	0.04874641
158	0x3e8f04d0	0.2793336
159	0x3e01bba1	0.12669231
160	0xbd17333d	-0.0369141
161	0xbd7c2d40	-0.06156659
162	0x3e45890b	0.19290559
163	0xbe5ac423	-0.21363883
164	0xbbaee296	-0.0053370697
165	0xbdba3a8c	-0.09093198
166	0xbd3f7faa	-0.04675261
167	0xbced5076	-0.02896903
168	0x3d8efeee	0.06982218
169	0x3d0995b6	0.03359004
170	0x3e310bda	0.17289677
171	0xbc2c1436	-0.010502866
172	0x3cab5138	0.020912752
173	0x3e05896c	0.13040704
174	0xbccb84ff	-0.02484369
175	0x3bd0114f	0.0063497196
176	0xbc57874b	-0.013154815
177	0xbc12c8d3	-0.008959013
178	0x3e30a4e9	0.17250408
179	0x3e0570aa	0.13031259
180	0x3cab21b1	0.020890089
181	0xbdf89672	-0.1213807
182	0x3da0709f	0.07833981
183	0x3e6cdc59	0.23130931
184	0x3c40d9fe	0.011770723
185	0x3cc9c562	0.024630252
186	0xbd3aed99	-0.045636747
187	0xbe00e260	-0.12586355
188	0xbd96f2fb	-0.073705636
189	0x3dd68375	0.10474292
190	0xbd8022aa	-0.06256612
191	0xbcacdb84	-0.021100767
192	0xbd276366	-0.040866278
193	0xbdbbfa3b	-0.09178587
194	0xbdf247a0	-0.11830068
195	0xbe8ab63e	-0.27092165
196	0x3e4fd116	0.20294604
197	0xbe2a57ff	-0.1663513
198	0xbe463fe7	-0.19360314
199	0xbe27a1a5	-0.16370256
200	0x3cd6d1b4	0.026223041
201	0x3d61d081	0.055130485
202	0xbc38631b	-0.011254097
203	0xbd9e4a12	-0.077289715
204	0x3d884aae	0.06654869
205	0x3d635de1	0.05550945
206	0xbdc98e7b	-0.09841629
207	0xbe02fe4e	-0.12792322
208	0xbceaa424	-0.028642721
209	0xbcba2f81	-0.02272773
210	0x3d7a3f46	0.0610955
211	0x3c629014	0.013828296
212	0x3e3bc3a1	0.18336345
213	0xbe92b210	-0.28651476
214	0xbe280c33	-0.16410904
215	0xbcefbc8f	-0.029264716
216	0x3e3cbca4	0.18431336
217	0xbe01f570	-0.12691283
218	0x3e401ae4	0.18760258
219	0x3e1746a6	0.14773044
220	0xbd63521a	-0.05549822
221	0xbd082af2	-0.03324408
222	0xbc7e3664	-0.015515897
223	0xbddf23f8	-0.10895532
224	0x3e0ba13f	0.13635729
225	0xbd91ad9e	-0.07113193
226	0xbd9c07fe	-0.07618712
227	0xbb872417	-0.0041241753
228	0xbd9aa597	-0.07551115
229	0x3df99f36	0.1218857
230	0x3d0e36bf	0.03472018
231	0x3e375bfc	0.17906183
232	0xbe21f3bb	-0.15815632
233	0x3e1435a0	0.14473581
234	0x3df79b66	0.12090187
235	0x3d453117	0.04814252
236	0xbd00e01d	-0.03146373
237	0x3d9fd369	0.07803995
238	0xbc4cc042	-0.01249701
239	0xbd9fd0c7	-0.07803493
240	0xbdbb65f5	-0.09150306
241	0xbdf420ce	-0.119203195
242	0xbd9fbeaf	-0.07800042
243	0xbd867329	-0.06564934
244	0xbdb9ad98	-0.090663135
245	0xbce77ca6	-0.02825768
246	0xbe29641c	-0.16542095
247	0xbd08e5a9	-0.033422146
248	0xbda60502	-0.08106424
249	0xbe02ea7f	-0.12784766
250	0x3de97be8	0.11400586
251	0xbe58944a	-0.21150318
252	0xbd920501	-0.07129861
253	0xbc6ee9bd	-0.014582095
254	0x3df93b75	0.12169544
255	0x3d45759c	0.048207864

fc2.bias f4 [128]
0	0x3ce5f4b7	0.02807079
1	0xbc0447d4	-0.008073766
2	0x3d59a261	0.053133372
3	0x3daddfe6	0.08489971
4	0xbc9489e8	-0.018132165
5	0x3c44acee	0.01200412
6	0xbbf1bba1	-0.0073771034
7	0x39379f3b	0.00017511558
8	0x3cb5c048	0.022186413
9	0xbd6eac0c	-0.058269545
10	0x3d358711	0.044318262
11	0xbcaa5071	-0.02079031
12	0xbd16eaf4	-0.036845163
13	0x3bfca8a9	0.0077105355
14	0xbd892099	-0.06695671
15	0xbd652e5e	-0.055952422
16	0xbd04be5b	-0.0324081
17	0xbd308304	-0.043093696
18	0x3d7d7bd0	0.061885655
19	0xbddd8e70	-0.108181834
20	0x3b459fc2	0.0030155038
21	0xbc8a6917	-0.016895814
22	0xbd1218d0	-0.035668194
23	0xbd2a2100	-0.041535378
24	0xbdcaa0c1	-0.098939426
25	0x3ca3c51e	0.019991454
26	0xbddc54ab	-0.10758337
27	0xbbb5d4aa	-0.005549033
28	0xbd3ffae3	-0.046870124
29	0xbd449e62	-0.048002608
30	0x3d2290b4	0.03968878
31	0xbcac065c	-0.020999126
32	0x3c8e880b	0.017398855
33	0xbd4fc69d	-0.05072652
34	0xbd75a2ec	-0.059969828
35	0xbd7aa9ed	-0.06119721
36	0xbc4f619a	-0.012657547
37	0xbc866f84	-0.016410597
38	0x3cfcd8c0	0.030865073
39	0xbb861b4f	-0.004092611
40	0x3c6537c1	0.013990344
41	0x3c2990df	0.010349481
42	0xbccd105e	-0.025032219
43	0x3c0fa932	0.008768367
44	0xbd503af3	-0.05083747
45	0xbd90b1e5	-0.07065181
46	0x3d625ecd	0.05526619
47	0x3b37cd65	0.0028046009
48	0xbc9aa732	-0.018878553
49	0xbcc99db0	-0.024611324
50	0x3d6978e0	0.05700004
51	0xbc9ab7d1	-0.018886479
52	0x3dc58269	0.096440144
53	0x3d46e877	0.04856154
54	0xbd9196d2	-0.07108845
55	0xbd3eef63	-0.046615016
56	0x3c6d3119	0.014477038
57	0xbdab6a07	-0.083698325
58	0x3bcc820b	0.0062410883
59	0x3c5fcfe5	0.013660406
60	0x3c2610d2	0.010135846
61	0xbba6c2f9	-0.0050891605
62	0xbd10c995	-0.035348494
63	0x3bc116a1	0.00589259
64	0x3b99fb31	0.004699134
65	0x3d9ed633	0.07755699
66	0xbc899cf5	-0.016798476
67	0xbd2fa289	-0.042879615
68	0xbcd28ab9	-0.025700914
69	0xbd953c2b	-0.07286867
70	0xbbab1a5f	-0.0052216495
71	0x3c327dc3	0.010894242
72	0xbc506e25	-0.012721573
73	0xbcbd6ead	-0.023124063
74	0x3b0a05f3	0.0021060675
75	0x3d4e2eef	0.050337728
76	0x3def5fad	0.116881706
77	0x3bbb8500	0.005722642
78	0xbbcf4b1e	-0.0063260933
79	0x3d5a9aec	0.0533704
80	0xbd30e15b	-0.043183666
81	0x3d0e33a7	0.03471723
82	0x3c9f5e7f	0.019454239
83	0x3c5a7fcb	0.013336132
84	0x3d1921c4	0.037385717
85	0xbde0457b	-0.10950752
86	0x3bf71ef5	0.007541532
87	0x3d70a437	0.058750357
88	0xbd4592e2	-0.04823578
89	0xbd074afa	-0.033030488
90	0x3db3888b	0.08766278
91	0x3d08a0a4	0.033356324
92	0xbdc54767	-0.096327595
93	0x3d5fa9ea	0.054605402
94	0x3c98b789	0.018642204
95	0xbd87be56	-0.066281006
96	0xbca48f48	-0.020087853
97	0xbc695e1b	-0.014243628
98	0xbd52eb5f	-0.051494
99	0x3d0046c7	0.0313175
100	0x3c18bfa9	0.009323039
101	0xbc92f876	-0.017940741
102	0xbd4030b9	-0.046921466
103	0xbdd7dc30	-0.10540044
104	0xbdb748c2	-0.08949424
105	0xbc36e675	-0.011163344
106	0xbb902866	-0.004399347
107	0xbd219109	-0.039444957
108	0x3d61e42b	0.05514924
109	0xbd2c802e	-0.04211443
110	0xbcacbc48	-0.021085873
111	0xbd2f4531	-0.042790595
112	0x3c9bf224	0.01903636
113	0xbc80fc55	-0.015745321
114	0xbc46d783	-0.012136343
115	0xbd9598a7	-0.07304507
116	0xbd57ad00	-0.05265522
117	0xbd1675e9	-0.03673354
118	0x3dbb6daa	0.09151776
119	0x3c044481	0.008072973
120	0x3d13fecb	0.03613166
121	0x3d69bce3	0.057064902
122	0x3c5efcc2	0.013610067
123	0x3b8683b4	0.0041050557
124	0xbc813a74	-0.015774943
125	0xbd704a29	-0.058664475
126	0x3d6316d4	0.055441692
127	0x3d89b79f	0.06724476

mu1.weight f4 [64, 128]
0	0xbe242493	-0.16029577
1	0xbd2f0137	-0.042725768
2	0x3e346db0	0.17619967
3	0x3e6032ba	0.2189435
4	0xbda0594e	-0.078295335
5	0x3dcff730	0.10154569
6	0xbf030023	-0.51172084
7	0xbd50c484	-0.050968662
8	0x3e06ea61	0.13175346
9	0xbe275ecf	-0.1634476
10	0x3e2bc272	0.16773394
11	0x3c296c5a	0.010340774
12	0x3d93f930	0.07225263
13	0x3e0b1d08	0.13585293
14	0x3e997e51	0.29979184
15	0x3e188aef	0.14896749
16	0x3a708191	0.00091745803
17	0x3def0837	0.11671489
18	0xbdf71174	-0.12063876
19	0x3def189a	0.11674614
20	0xbc72e3f0	-0.014824852
21	0x392e534d	0.00016624965
22	0xbdd7c5f9	-0.10535807
23	0xbe513935	-0.20431979
24	0x3d20daab	0.039271038
25	0x3e01ac61	0.12663414
26	0x3d3ecd66	0.046582602
27	0x3df1ff9a	0.1181633
28	0xbd2d9614	-0.042379454
29	0xbdd4b958	-0.10386914
30	0x3dc598d4	0.0964829
31	0x3ea948f6	0.33063477
32	0x3d3c6820	0.04599774
33	0x3e57222b	0.21009128
34	0x3ce33381	0.02773452
35	0x3d47532c	0.048663303
36	0x3cd6dd5c	0.0262286
37	0xbd26ab3b	-0.04069064
38	0xbd8c9f78	-0.06866354
39	0x3dca2da5	0.09871987
40	0x3d88f4a2	0.06687285
41	0x3daa5958	0.08317822
42	0x3d61f9af	0.055169757
43	0xbcb0ad29	-0.021566944
44	0x3d049d4f	0.032376584
45	0x3c306928	0.010767259
46	0x3e85d093	0.26135692
47	0xbe8c5eec	-0.2741617
48	0xbdf21803	-0.11820986
49	0xbe0a2b7d	-0.13493152
50	0x3d843e7e	0.06457232
51	0xbc881ab5	-0.016614297
52	0x3d9ff686	0.078106925
53	0xbdda71ab	-0.10666212
54	0x3e3c59bb	0.18393604
55	0x3e1e75f0	0.15474677
56	0xbdf6cbdd	-0.120506026
57	0x3db26bde	0.0871198
58	0x3e1653f0	0.14680457
59	0x3e6d2ae2	0.2316089
60	0x3ddd7464	0.108132154
61	0x3e20502f	0.15655588
62	0x3e10bf43	0.1413546
63	0xbc6d4aec	-0.014483195
64	0x3da8bb91	0.082389005
65	0x3e198e7f	0.14995764
66	0x3cc9024b	0.024537226
67	0x3e09ecf2	0.13469294
68	0xbd749888	-0.059715778
69	0x3dc10cc5	0.09426264
70	0x3cce0ab9	0.025151597
71	0x3e68d93e	0.22739121
72	0xbc99e253	-0.018784678
73	0x3da18260	0.07886195
74	0xbe131405	-0.14363106
75	0xbd0af73f	-0.0339272
76	0x3d5c6f39	0.053817008
77	0x3de905b3	0.1137804
78	0x3c9a956f	0.018870084
79	0xbcc60161	-0.02417058
80	0x3b85c7d3	0.004082659
81	0x3d5581fc	0.052125916
82	0x3e4d11f7	0.20026384
83	0x3d0f0362	0.034915335
84	0x3ddd4dde	0.108058676
85	0x3deadf59	0.114683814
86	0x3d1b89a7	0.037973072
87	0xbd367a53	-0.04455025
88	0xbd9489aa	-0.0725282
89	0xbd27d203	-0.040971767
90	0xbdb9901f	-0.09060692
91	0x3da62537	0.08112567
92	0xbe3347cb	-0.17507856
93	0xbb7996a5	-0.0038084176
94	0x3e47658a	0.19472328
95	0xbdea95da	-0.11454363
96	0x3ddb259f	0.10700535
97	0xbafce9cd	-0.0019295752
98	0x3d0991d4	0.03358634
99	0xbe1745d2	-0.14772728
100	0xbe2eed12	-0.17082623
101	0x3ced063a	0.028933633
102	0xbd51bcb4	-0.051205352
103	0x3d4c2bfe	0.04984664
104	0x3d9fe4f8	0.07807344
105	0x3ddc93b2	0.10770358
106	0x3e4780ac	0.19482678
107	0x3c23513c	0.009968098
108	0xbd332bb5	-0.043742854
109	0x3dfc9c3b	0.12334486
110	0x3e0a99b9	0.13535203
111	0x3e86e455	0.2634608
112	0xbda31802	-0.079635635
113	0x3e4ea7a0	0.20181131
114	0xbd64de8e	-0.055876307
115	0x3d9843f0	0.07434833
116	0xbdebd029	-0.11514313
117	0xbd630f1b	-0.055434328
118	0xbe6495ad	-0.22322722
119	0x3dfb9527	0.12284308
120	0xbcffa2d7	-0.031205578
121	0xbdbc9e88	-0.09209925
122	0x3d221fb2	0.03958101
123	0x3e0cf967	0.13767014
124	0xbdb572d4	-0.08859792
125	0xbe1fd862	-0.15609887
126	0x3d064ccb	0.03278808
127	0xbd3a93e9	-0.045551214
128	0xbe08931c	-0.13337368
129	0x3e8be6a3	0.273244
130	0xbde6060a	-0.112316206
131	0xbe79ffc1	-0.24413969
132	0x3d967c5e	0.0734794
133	0x3e191e43	0.1495295
134	0x3d75322a	0.059862293
135	0xbd73ece7	-0.0595521
136	0x3bfd81da	0.007736427
137	0x3c4babfa	0.012431139
138	0x3d4ff17f	0.050767418
139	0xbd603584	-0.054738536
140	0x3c50c765	0.012742852
141	0xbe0cc315	-0.13746293
142	0xbe034d9a	-0.12822571
143	0x3d29bbee	0.04143899
144	0x3e907b1c	0.28218925
145	0xbdc5f787	-0.09666353
146	0xbd8935d8	-0.06699723
147	0xbdcee38f	-0.10101997
148	0x3e8c5a6c	0.27412736
149	0x3dead14a	0.114657
150	0x3e8a33a0	0.26992512
151	0x3e29c029	0.1657721
152	0xbce22081	-0.02760339
153	0xbdc997a6	-0.09843378
154	0x3e4fffa1	0.20312358
155	0xbde43c73	-0.11144342
156	0xbba44e60	-0.005014226
157	0x3dfee696	0.124463245
158	0xbe0ed1bf	-0.139472
159	0xbcebfb5e	-0.028806385
160	0x3d5653b2	0.05232591
161	0x3d62caab	0.05536906
162	0x3e03b77c	0.12862962
163	0x3e914cc7	0.2837889
164	0x3ccb2c5e	0.02480143
165	0xbd5004cb	-0.05078582
166	0xbd843edb	-0.06457301
167	0x3e033c31	0.1281593
168	0xba74b5e0	-0.0009334963
169	0xbc80e0dc	-0.015732221
170	0x3e88bfa7	0.2670872
171	0x3e542c42	0.20720008
172	0x3e8f9858	0.28045917
173	0x3e3fb01c	0.18719524
174	0x3e4c5165	0.19952925
175	0xbe714d2e	-0.23564598
176	0x3dea6b59	0.11446256
177	0x3d729ae4	0.059229746
178	0x3e807cdc	0.2509526
179	0x3d1a48a5	0.037666935
180	0xbd4bab34	-0.04972382
181	0x3e5d6168	0.21619189
182	0x3daa7366	0.08322792
183	0x3dbfd1b6	0.09366171
184	0x3e46ccf9	0.19414128
185	0x3cabd28a	0.020974416
186	0x3dcfe5b1	0.10151232
187	0x3e4bca9b	0.19901507
188	0x3e26e12a	0.16296831
189	0x3e06ae0b	0.1315233
190	0x3e2253a2	0.15852216
191	0x3e26701f	0.16253708
192	0x3df9501b	0.12173482
193	0x3e242913	0.16031294
194	0xbe5458c3	-0.20736985
195	0x3e6768ed	0.2259862
196	0x3e4e0671	0.20119645
197	0xbd3ddb72	-0.046351857
198	0xbdfadfbf	-0.122497074
199	0xbe01f01f	-0.12689255
200	0xbe83aa52	-0.25715882
201	0xbcdd445c	-0.027010135
202	0xbd077db2	-0.033078857
203	0x3de192e3	0.110143445
204	0xbdb0a841	-0.08625842
205	0x3e0b8c69	0.13627781
206	0xbc9e975b	-0.019359281
207	0x3e09d31e	0.13459441
208	0x3eefc57a	0.4683035
209	0x3da61258	0.081089675
210	0xbc935e6f	-0.017989365
211	0x3cdac614	0.02670578
212	0x3e334e22	0.17510274
213	0xbd77ea41	-0.060526136
214	0x3d4f588b	0.05062155
215	0x3bf82135	0.007572318
216	0x3e293d08	0.16527188
217	0x3db859bf	0.09001493
218	0x3e7b392e	0.24533531
219	0x3c0e5fa5	0.008689796
220	0x3da46866	0.08027725
221	0xbc07f7ed	-0.008298856
222	0x3e312645	0.17299755
223	0xbe3ca447	-0.18422042
224	0x3dc0789f	0.09398007
225	0x3d965044	0.07339528
226	0x3e2eb271	0.17060257
227	0x3e86e364	0.2634536
228	0xba341ac2	-0.00068704423
229	0x3e0127e0	0.12612867
230	0x3edb64b5	0.4285027
231	0xbe237d1d	-0.15965696
232	0xbd1e1cc5	-0.038601656
233	0x3dcec89f	0.10096859
234	0x3b443ca0	0.0029943362
235	0x3e04ccd4	0.1296876
236	0x3e1cecb2	0.15324667
237	0x3c972e74	0.018454768
238	0x3e4f276b	0.2022988
239	0x3dfd0c75	0.123558916
240	0xbdc25d34	-0.09490433
241	0x3d7a4a4d	0.061106015
242	0xbd291c8c	-0.04128699
243	0xbd8bae4b	-0.06820353
244	0x3e3ad6f9	0.18246068
245	0xbd8d8610	-0.06910336
246	0x3e8db2fa	0.2767561
247	0xbe62dc15	-0.22154267
248	0x3e8143f5	0.2524716
249	0xbd7660e2	-0.06015099
250	0xbc3da0a2	-0.011573942
251	0x3e0ee73f	0.13955401
252	0xbd9d3861	-0.07676769
253	0x3ca52242	0.020157937
254	0x3e12e434	0.14344865
255	0x3c9fa5b7	0.019488199

mu1.bias f4 [64]
0	0x3c02b142	0.007976832
1	0x3d806b71	0.06270493
2	0x3d8e66f4	0.069532305
3	0xbe323ade	-0.17405269
4	0xbd640dba	-0.055677153
5	0xbd544610	-0.05182463
6	0x3c86b44a	0.01644339
7	0xbd58343b	-0.052784186
8	0x3cba6b93	0.022756374
9	0x3c90bd31	0.017668338
10	0xbdddd9cc	-0.10832557
11	0xbdf885dd	-0.121349074
12	0x3c4177e2	0.011808367
13	0x3c47a222	0.012184652
14	0xbd8db204	-0.069187194
15	0xbdc5a16a	-0.09649928
16	0x3d322ca7	0.043499615
17	0x3db2ef86	0.08737092
18	0xbd9b082e	-0.075699195
19	0x3c8bc30c	0.017060779
20	0x3d5ba60a	0.053625144
21	0xbcbd595e	-0.023113903
22	0x3d35c979	0.044381592
23	0x3cdf7cad	0.02728113
24	0x3d80fd90	0.06298363
25	0x3d078e89	0.033094916
26	0x3d4f0d0a	0.050549544
27	0xbc8ced82	-0.017203096
28	0x3d564679	0.0523133
29	0x3d7ff988	0.06249383
30	0xbc2d5d8c	-0.010581385
31	0x3d24b076	0.04020735
32	0x3e02b56d	0.12764521
33	0xbdae6037	-0.08514445
34	0x3cead4df	0.028665958
35	0x3da2af5f	0.07943606
36	0x3d217c56	0.039425217
37	0xbd659fd6	-0.056060635
38	0xbd1b763b	-0.03795455
39	0xbd88e947	-0.06685119
40	0x3d987330	0.07443845
41	0xbd1708a6	-0.036873482
42	0x3d7f707b	0.06236313
43	0xbdcd04d9	-0.1001069
44	0xbe003726	-0.12521037
45	0xbc2e2b2f	-0.010630413
46	0x3c84f666	0.016230773
47	0xbce877dd	-0.028377468
48	0x3cbe4f0d	0.023231054
49	0xba5ae714	-0.00083504734
50	0xbbc8e58f	-0.006130881
51	0xbd8994b7	-0.06717818
52	0xbd9d94cb	-0.07694396
53	0x3dcc812a	0.099855736
54	0xbd601e9b	-0.054716688
55	0xbe0e26d0	-0.13881993
56	0xbd0082a7	-0.0313746
57	0x3d9417e1	0.07231117
58	0x3d390307	0.045168903
59	0xbce1028c	-0.027467035
60	0x3ced0bc6	0.028936278
61	0x3d4e21c3	0.050325166
62	0x3c96c4c7	0.018404378
63	0xbd1d28ab	-0.038368862

mu2.weight f4 [4, 64]
0	0xbd25ebc6	-0.040508054
1	0x3db1d3a1	0.08682943
2	0x3e9499fa	0.29023725
3	0x3d3b7a3a	0.04577086
4	0x3db03d6b	0.086054645
5	0xbc82ffa1	-0.015991034
6	0x3e0441eb	0.1291577
7	0x3e0f33c6	0.13984594
8	0x3d859c04	0.06523898
9	0xbf20f330	-0.62871075
10	0x3c803cd4	0.015654005
11	0x3ca09735	0.019603351
12	0xbec2a4fe	-0.38016504
13	0xbd553a8d	-0.05205779
14	0x3f221829	0.63318115
15	0x3c1efbd5	0.009703596
16	0xbe15c958	-0.14627588
17	0xbc5de242	-0.013542714
18	0x3f0ddf95	0.55419284
19	0xbe9846fb	-0.29741654
20	0xbd0b1e6b	-0.033964556
21	0xbceb0bc6	-0.028692137
22	0xbe72b38a	-0.23701301
23	0xbeb30dfa	-0.349716
24	0xbe373a58	-0.1789335
25	0x3d1c9e1f	0.038236734
26	0xbd934a5d	-0.07191918
27	0x3cab736f	0.020929066
28	0xbd9dabe9	-0.07698805
29	0x3e81099b	0.2520264
30	0x3e8391da	0.25697213
31	0xbe125194	-0.14288932
32	0x3e013011	0.12615992
33	0xbdb42b34	-0.08797303
34	0x3d0a80ba	0.03381417
35	0xbe265a28	-0.1624533
36	0xbd5e482b	-0.054268043
37	0x3db9f749	0.09080369
38	0xbf355314	-0.7082989
39	0xbe208051	-0.15673949
40	0x3e0ad79f	0.13558815
41	0x3d89ff38	0.06738132
42	0xbba3f397	-0.0050034034
43	0xbf08ed74	-0.53487325
44	0x3c1388e2	0.009004803
45	0xbe7a3ac7	-0.24436484
46	0x3e85ce6e	0.26134056
47	0xbe33ef5e	-0.1757178
48	0x3e9230fe	0.28553003
49	0xbce8bf39	-0.028411495
50	0x3e34305b	0.17596571
51	0x3ef03a7a	0.46919614
52	0xbf1e98e8	-0.61952066
53	0x3de182c1	0.110112675
54	0xbdc3dee9	-0.09564001
55	0x3f9e5462	1.2369502
56	0xbf4d1333	-0.8010742
57	0x3ce04969	0.027378755
58	0x3ee065c5	0.43827644
59	0xbf043d4d	-0.5165604
60	0xbe4b0535	-0.19826205
61	0xbc103665	-0.008802031
62	0xbc2ada4f	-0.010428025
63	0x3f06d106	0.52662694
64	0x3ce48a4c	0.027897976
65	0xbe149af2	-0.14512232
66	0x3da953a8	0.08267909
67	0xbe0b8e6c	-0.13628548
68	0xbd0e7ec7	-0.034788873
69	0x3c710aaa	0.014712015
70	0xbd896c84	-0.06710151
71	0xbe192b27	-0.14957868
72	0x3e946567	0.28983614
73	0x3e6bbf8f	0.23022293
74	0xbd44be12	-0.048032828
75	0xbf233c62	-0.6376401
76	0xbe238ba5	-0.15971239
77	0x3d3c634f	0.045993146
78	0xbc557f41	-0.013030828
79	0x3c0d5eb2	0.008628534
80	0x3ea86c67	0.32895204
81	0x3eb26a9d	0.34846964
82	0x3c37d10c	0.011219274
83	0xbe21fbdf	-0.15818737
84	0xbd7c2575	-0.06155916
85	0xbe1e13ec	-0.15437287
86	0xbd8b6a44	-0.06807378
87	0x3e7feb8c	0.24992198
88	0x3c4e6085	0.012596254
89	0xbe1db2fd	-0.1540031
90	0xbd66ccf3	-0.0563478
91	0x3e3e2a11	0.18570735
92	0x3daa66b6	0.08320372
93	0xbe31c02f	-0.17358468
94	0x3d89073c	0.06690833
95	0x3f016952	0.5055133
96	0x3e747238	0.23871696
97	0xbe3a4e62	-0.18193963
98	0xbea6bac6	-0.32564372
99	0xbe403063	-0.18768458
100	0xbdb77f1b	-0.0895979
101	0xbea03847	-0.31292936
102	0x3e1112ca	0.14167324
103	0x3d86e5e7	0.06586819
104	0xbe2131b8	-0.15741622
105	0xbdb9ad3d	-0.09066246
106	0x3e1cb3e1	0.15302993
107	0xbec45d84	-0.38352597
108	0xbdbcf2bc	-0.092259854
109	0x3f05ccbd	0.5226553
110	0x3e19d675	0.15023215
111	0xbd21d424	-0.039508954
112	0x3d1a191a	0.037621595
113	0xbdbe0112	-0.09277548
114	0x3c2d1c5b	0.0105658425
115	0xbe51ea33	-0.20499496
116	0x3d930434	0.07178536
117	0x3ea194cf	0.31558844
118	0x3e4e832c	0.20167226
119	0x3dbda978	0.09260839
120	0x3e10916d	0.14117976
121	0x3eb1e608	0.34745812
122	0x3ea01903	0.31269082
123	0xbe2c399d	-0.16818853
124	0xbd2c70f3	-0.042099904
125	0xbdd1bb68	-0.10240823
126	0x3d96d165	0.073641576
127	0x3ebc2e83	0.36754236
128	0xbdd327a3	-0.103102945
129	0x3d1ffe1e	0.039060704
130	0x3e69a8c1	0.22818281
131	0x3f8fd184	1.1235814
132	0xbe6ed49f	-0.23323296
133	0x3ec78bb5	0.38973776
134	0x3d4b8d59	0.049695347
135	0x3d22c7e5	0.039741416
136	0xbd0c8f67	-0.034316447
137	0x3d8f5adf	0.06999754
138	0x3acba3ad	0.001553645
139	0xbe889e9c	-0.2668351
140	0x3dbd2fdc	0.09237644
141	0x3ddac2c0	0.10681677
142	0xbdef28e2	-0.1167772
143	0x3e2f5ae4	0.17124516
144	0xbdc1a86f	-0.09455954
145	0xbec2b271	-0.38026765
146	0xbf676b27	-0.90397877
147	0xbd3e70ee	-0.046494417
148	0xbdcfd060	-0.10147166
149	0xbe2ee24b	-0.17078511
150	0xbca0c5b8	-0.01962553
151	0x3bec74c1	0.0072160666
152	0xbf23abae	-0.6393384
153	0xbbfb8fa6	-0.0076770363
154	0xbbe79aae	-0.007068
155	0x3e67f533	0.2265213
156	0x398830ad	0.00025976208
157	0xbd7b083f	-0.06128716
158	0x3d15749b	0.036488157
159	0xbd2d05a9	-0.042241726
160	0xbcf933da	-0.030420233
161	0x3e12229a	0.14271012
162	0x3dc13632	0.09434165
163	0xbcd5bee5	-0.026092002
164	0xbe1006e1	-0.14065124
165	0x3d8430a7	0.06454592
166	0xbe94c452	-0.2905603
167	0x3b4c7274	0.003119615
168	0xbbaa0cf0	-0.0051895306
169	0x3d3d0054	0.04614289
170	0x3e9f4406	0.31106585
171	0x3e5f6fc6	0.21819982
172	0xbe892c5b	-0.26791653
173	0xbb87858a	-0.004135792
174	0x3eb4d04e	0.35315174
175	0x3ec841fa	0.39112836
176	0x3d55af03	0.052168857
177	0xbe70a71f	-0.23501252
178	0x3d05d1c6	0.03267076
179	0xbe91d90b	-0.28485903
180	0xbcf354a4	-0.029703446
181	0x3cca76e7	0.0247149
182	0x3d99b261	0.07504726
183	0x3d98efd0	0.074676156
184	0xbf47bf5e	-0.7802638
185	0xbd3effee	-0.046630792
186	0xbaf478c5	-0.0018651715
187	0xbd6374c6	-0.055531286
188	0x3e4fa42e	0.20277473
189	0xbe03bd99	-0.12865295
190	0xbe3503b1	-0.1767719
191	0x3e791063	0.24322657
192	0x3e1cc5da	0.1530985
193	0xbd3140c0	-0.04327464
194	0x3e1272d0	0.1430161
195	0x3dec4cf7	0.115381174
196	0xbccb9a1b	-0.024853757
197	0xbdbbff4c	-0.091795534
198	0xbd034d2b	-0.032056015
199	0xbf1189bb	-0.56850785
200	0x3da099c0	0.078418255
201	0xbda725ee	-0.081615314
202	0xbf07948a	-0.5296103
203	0xbbe9e5b2	-0.0071379775
204	0x3cb9a26d	0.022660458
205	0xbb8689ff	-0.004105806
206	0xbde15a7d	-0.110035874
207	0x3d32f96e	0.043694906
208	0x3d8160f6	0.06317322
209	0xbe61e473	-0.22059803
210	0x3ddab66a	0.10679324
211	0xbe0290f1	-0.12750603
212	0x3de27efc	0.110593766
213	0x3d63187e	0.05544328
214	0x3d946514	0.072458416
215	0x3ee84911	0.45368245
216	0x3d9b6806	0.075882
217	0x3dee6899	0.11641044
218	0x3e09c5b4	0.13454324
219	0xbc29f436	-0.010373166
220	0xbe44703c	-0.19183439
221	0xbd8a91da	-0.067661
222	0x3dad81fa	0.08472057
223	0xbd97a0cb	-0.07403716
224	0xbc7ce7f3	-0.01543616
225	0x3e869eb9	0.2629297
226	0x3e9f0c1b	0.31063923
227	0xbc9b4ab2	-0.018956516
228	0xbe74ada1	-0.23894359
229	0x3d417b35	0.04723664
230	0xbdd7d697	-0.10538977
231	0x3eb3bcf3	0.35105094
232	0x3d64b557	0.055837
233	0xbd1e155b	-0.038594585
234	0x3e379f94	0.17931968
235	0xbe1538dd	-0.14572473
236	0xbe80d0f6	-0.25159425
237	0xbe06e708	-0.13174069
238	0x3ddf3e51	0.10900558
239	0xbeb23e6b	-0.34813246
240	0x3ddcc65a	0.1078002
241	0xbcde2ff3	-0.027122473
242	0x3f2d1be9	0.6762071
243	0xbd8d5ad0	-0.06902087
244	0x3e1fd120	0.15607119
245	0x3c91a37b	0.017778149
246	0xbdf0b08f	-0.11752426
247	0x3d20957b	0.039205056
248	0x3d2f9c1b	0.042873483
249	0xbc29dafa	-0.0103671495
250	0xbe2e70de	-0.17035243
251	0xbcffb40d	-0.031213785
252	0x3eb4d7e0	0.3532095
253	0x3e1b3da6	0.15160236
254	0xbe0c6ba1	-0.13712932
255	0xbf512338	-0.81694365

mu2.bias f4 [4]
0	0xbd125572	-0.03572602
1	0x3cb28f5c	0.021796875
2	0xbd38cda3	-0.045117985
3	0xbc546f47	-0.012965984

sigma1.weight f4 [64, 128]
0	0xbdf82670	-0.12116706
1	0xbda12de0	-0.07870078
2	0x3d223f84	0.039611354
3	0xbda8cfb2	-0.0824274
4	0xbdf449e8	-0.11928159
5	0xbd8e9bd8	-0.069633186
6	0x3d1e928c	0.038713977
7	0x3dd51504	0.10404399
8	0xbcbd52d0	-0.023110777
9	0xbc198070	-0.009369001
10	0xbbe0e540	-0.006863266
11	0x3de88f90	0.113555074
12	0x3dbfd0f0	0.093660235
13	0x3dee46aa	0.11634572
14	0x3d44cd5c	0.04804741
15	0xbdd91f02	-0.106016174
16	0xbddcf7dc	-0.10789463
17	0xbdffd0b2	-0.12490977
18	0x3c386fa0	0.011257082
19	0x3d453ef4	0.04815574
20	0x3d10a02c	0.035309
21	0xbd3ad5fc	-0.045614228
22	0xbda29c6c	-0.07939991
23	0x3dd9fb8c	0.10643682
24	0x3d8d7b56	0.0690829
25	0x3cbeb100	0.02327776
26	0x3dfb7b22	0.12279345
27	0x3c8369c0	0.016041636
28	0xbd899002	-0.067169204
29	0x3d117d14	0.035519674
30	0x3ddae8fe	0.10688971
31	0x3d07c11c	0.033143148
32	0xbd50e3f0	-0.05099863
33	0x3d0a9e30	0.033842266
34	0xbd95a172	-0.07306184
35	0xbd704ac8	-0.058665067
36	0xbd884d90	-0.06655419
37	0xbb248040	-0.0025100857
38	0x3dbdb9dc	0.092639655
39	0xbd5a0ea0	-0.053236604
40	0x3de435fa	0.11143108
41	0x3becbcc0	0.007224649
42	0x3cfa9df0	0.030592889
43	0xbc13a590	-0.009011641
44	0x3ce80ed8	0.02832739
45	0xbd9c24aa	-0.076241806
46	0xbcf9a9a0	-0.030476391
47	0x3df2733e	0.11838387
48	0xbbac98e0	-0.0052672476
49	0x3d32388c	0.04351096
50	0x3a14a600	0.0005670488
51	0x3dfa0538	0.12208027
52	0x3da5159c	0.08060762
53	0xbc097860	-0.008390516
54	0xbde2210a	-0.11041458
55	0x3dfd2c4c	0.123619646
56	0x3dd0000c	0.10156259
57	0x3dfde014	0.12396255
58	0xbdb31d24	-0.087457925
59	0xbda12e78	-0.07870191
60	0x3cae5258	0.021279499
61	0xbd02ed54	-0.031964615
62	0xbd403470	-0.04692501
63	0xbd3d18c8	-0.04616621
64	0x3b1a4f00	0.0023545623
65	0xbd0236e4	-0.03179063
66	0xbd2663b8	-0.040622443
67	0xbd1062e0	-0.035250545
68	0x3c520240	0.012817919
69	0xbcb570c8	-0.022148505
70	0xbc8d2740	-0.01723063
71	0x3c4f83d0	0.012665704
72	0x3c8c9e70	0.017165393
73	0xbdd35b06	-0.10320096
74	0xbdbff6f2	-0.09373273
75	0xbd0b4c30	-0.034008205
76	0x3ca26770	0.019824713
77	0x3d442c30	0.047893703
78	0x3d02566c	0.0318207
79	0xbd5a2700	-0.05325985
80	0xbdb83d1a	-0.08996029
81	0xbce7bf08	-0.028289333
82	0x3dc3046c	0.09522328
83	0xbd0dee60	-0.03465116
84	0x3dcd2e3c	0.10018584
85	0xbdc7743e	-0.09738968
86	0x3d86be6a	0.06579287
87	0x3d86901a	0.06570454
88	0x3d8073ee	0.06272112
89	0x3c1b7ea0	0.009490639
90	0x3de45f64	0.11151007
91	0x3d7b7cf4	0.06139846
92	0x3ce3b108	0.027794376
93	0xbdabf664	-0.08396605
94	0xbc9fc4d0	-0.019503027
95	0x3d2ac4e0	0.04169166
96	0xbccff9b0	-0.025387615
97	0x3d3fe87c	0.046852574
98	0x3dd9222c	0.10602221
99	0xbcd6c2e8	-0.026215985
100	0x3daef190	0.08542168
101	0x3d9371bc	0.071994275
102	0x3dda4d88	0.10659319
103	0x3cf9c0f8	0.030487522
104	0x3db37f38	0.087644994
105	0xbdde4c9e	-0.10854457
106	0x3c8c3548	0.01711525
107	0xbb099300	-0.002099216
108	0xbd9190fc	-0.07107732
109	0xbdcadd3a	-0.09905477
110	0x3dee2104	0.11627391
111	0x3ca811f8	0.02051638
112	0xbd31566c	-0.04329531
113	0xbd5c79b0	-0.053826988
114	0x3dbcdbea	0.09221633
115	0x3cf1dd90	0.029524595
116	0xbd568ba8	-0.05237928
117	0x3d3e3158	0.046433777
118	0xbdfd72b0	-0.123753905
119	0x3da6bef2	0.08141889
120	0xbdc2131c	-0.09476301
121	0x3d7f4618	0.062322706
122	0x3d195780	0.037436962
123	0xbd0faa84	-0.035074726
124	0xbd61308c	-0.05497794
125	0xbd477ac4	-0.048701063
126	0x3da1716e	0.07882963
127	0xbd46d0ac	-0.04853885
128	0x3dba3244	0.09091619
129	0x3ddd4142	0.108034626
130	0xbd5d33a4	-0.054004326
131	0xbc82fbe0	-0.015989244
132	0x3dd6467a	0.10462661
133	0x3c89bf80	0.016814947
134	0x3d5def6c	0.05418341
135	0x3d251fa0	0.040313363
136	0x3baa07a0	0.0051888973
137	0x3dc741ce	0.09729348
138	0xbdf34812	-0.11878981
139	0xbd1bbe00	-0.038022995
140	0xbda570a2	-0.08078124
141	0x3cef2d28	0.029196337
142	0x3db72baa	0.08943875
143	0x3df63b8c	0.120230764
144	0x3df69f30	0.12042081
145	0x3dcf6ff2	0.10128774
146	0xbde0cd2e	-0.10976635
147	0xbd819ec4	-0.0632911
148	0x3d3118a0	0.043236375
149	0x3c949560	0.018137634
150	0x3bce5020	0.0062961727
151	0x3cf93d10	0.030424625
152	0xbd3b3c10	-0.045711577
153	0xbdaf86a0	-0.085705996
154	0xbcc55840	-0.024089932
155	0xbce7e260	-0.028306186
156	0xbd1a97f8	-0.037742585
157	0xbd4c6b44	-0.049906984
158	0xbd654910	-0.05597788
159	0x3def183a	0.11674543
160	0x3d840a3a	0.06447263
161	0x3dcceac4	0.100057155
162	0xbdc74b12	-0.097311154
163	0xbdd291f6	-0.10281746
164	0x3dba9132	0.09109725
165	0xbd50e830	-0.05100268
166	0xbdb292e8	-0.087194264
167	0xbd245bd8	-0.04012665
168	0xbc7d7550	-0.015469864
169	0xbdf1ce92	-0.11806978
170	0x3d96486e	0.073380336
171	0x3bd346c0	0.006447643
172	0x3c1d1c70	0.0095893
173	0xbccf9290	-0.025338441
174	0xbdf26eb8	-0.11837524
175	0xbda46546	-0.08027129
176	0xbd8a4bb2	-0.06752719
177	0x3cc21670	0.02369234
178	0xbd91d332	-0.071203604
179	0x3c96ffe0	0.018432558
180	0x3d866492	0.06562151
181	0xbc185ac0	-0.00929898
182	0xbdd18e50	-0.10232222
183	0xbda49cb0	-0.08037698
184	0x3dcf4006	0.101196334
185	0xbba19340	-0.0049308836
186	0xbdcb1520	-0.09916139
187	0x3deb9196	0.11502378
188	0x3a2e7900	0.00066556036
189	0xbd1a63a0	-0.037692666
190	0xbcd2be20	-0.025725424
191	0x3d8663d2	0.06562008
192	0xbddd4958	-0.10805005
193	0xbdef4358	-0.11682767
194	0x3df1b8e4	0.11802843
195	0xb6130000	-2.1904707e-06
196	0xbdadffde	-0.084960684
197	0x3daa4856	0.08314578
198	0x3dc08dd6	0.09402053
199	0x3d4d201c	0.05007945
200	0xbba3dfa0	-0.0050010234
201	0x3d935830	0.07194555
202	0xbc005220	-0.00783208
203	0x3cf07f30	0.029357523
204	0xbd955646	-0.07291846
205	0xbd8c3ef8	-0.06847948
206	0xbcaa62d0	-0.02079907
207	0xbcdeb2f0	-0.027184933
208	0xbd4c06a0	-0.049811006
209	0x3ccb34d0	0.024805456
210	0xbdf80dba	-0.12111993
211	0x3be02f60	0.006841585
212	0xbb828700	-0.0039833784
213	0xbcea65b0	-0.028612942
214	0xbcda8358	-0.026673958
215	0xbd8a870c	-0.067640394
216	0x3d318618	0.043340772
217	0xbd0ce3ac	-0.034396812
218	0x3d221e48	0.03957966
219	0xbcba2308	-0.022721782
220	0xbc1ff250	-0.009762362
221	0x3df6f3d4	0.12058225
222	0x3d2454b0	0.040119827
223	0xbc801b40	-0.015637994
224	0xbd520234	-0.051271632
225	0xbd56f7b8	-0.052482337
226	0xbdc1cd50	-0.094629884
227	0xbded6020	-0.115906
228	0x3c1e7470	0.009671316
229	0xbccdd9b8	-0.02512823
230	0x3d810750	0.06300223
231	0x3dea6ebe	0.11446904
232	0xbbb1c840	-0.005425483
233	0x3ca4a0a8	0.020096138
234	0xbc14b9e0	-0.009077519
235	0xbda8ce12	-0.0824243
236	0x3dd3547a	0.10318847
237	0xbcf6ece0	-0.030142248
238	0xbdb38f92	-0.08767618
239	0x3d93a800	0.07209778
240	0x3d55b468	0.052174002
241	0xbde45dc8	-0.111507
242	0xbdded48e	-0.10880385
243	0x3de258ce	0.110520944
244	0x3c1c54d0	0.009541705
245	0x3c7ab4a0	0.015301853
246	0x3c5cfca0	0.013487965
247	0xbcbdf4e0	-0.023188055
248	0xbd720f68	-0.059096724
249	0x3dde37ee	0.108505115
250	0xbd30f798	-0.043204874
251	0x3db895f6	0.09012978
252	0x3def08e4	0.116716176
253	0x3d26ff1c	0.040770635
254	0xbdd257ea	-0.102706745
255	0xbd1d1f34	-0.038359836

sigma1.bias f4 [64]
0	0x3da62bc7	0.081138186
1	0xbb213980	-0.0024600923
2	0xbda435f9	-0.08018107
3	0xbbc82be0	-0.006108746
4	0xbd3ee675	-0.0466065
5	0x3d489e5a	0.04897914
6	0x3dae125d	0.08499596
7	0xbd3cef10	-0.046126425
8	0x3da56869	0.08076555
9	0x3d6af7de	0.05736529
10	0xbc2c7420	-0.010525733
11	0x3d41d552	0.04732258
12	0xbd595b0a	-0.053065337
13	0x3da3df63	0.08001592
14	0xbc833190	-0.016014844
15	0xbc4d4b20	-0.012530118
16	0xbcb63770	-0.022243232
17	0x3d0deaf6	0.034647904
18	0x3d9fc03d	0.078003384
19	0xbadd7c80	-0.0016898066
20	0x3d4bab4a	0.0497239
21	0xb935f800	-0.00017353892
22	0x3d564f7e	0.052321903
23	0x3d2a0d06	0.041516326
24	0xbce89d98	-0.028395459
25	0xbd9830c1	-0.07431174
26	0x3d656032	0.055999942
27	0xbc6bedf0	-0.01439999
28	0xbd9fddd1	-0.0780598
29	0xbd093524	-0.033497944
30	0xbda5754b	-0.080790125
31	0x3d8b278f	0.067946546
32	0x3d09c4d6	0.033634983
33	0x3bd93f90	0.0066298917
34	0xbd0a69c6	-0.03379228
35	0xbd082a9b	-0.033243757
36	0x3cb66088	0.022262827
37	0x3d75112e	0.059830837
38	0x3d5f996e	0.05458968
39	0xbd85d80d	-0.06535349
40	0x3da24147	0.07922607
41	0xbd6bd636	-0.057577334
42	0x3c1b1758	0.009466015
43	0x3d4a2bb6	0.049358092
44	0xbda905ff	-0.08253097
45	0x3d735af2	0.059412904
46	0xbd2e2b18	-0.042521566
47	0x3cd07078	0.025444254
48	0xbd985533	-0.074381255
49	0xbcafd178	-0.021462187
50	0x3d1f5b5e	0.038905494
51	0xbd914664	-0.07093504
52	0xbcf1e89c	-0.029529862
53	0xbd94c113	-0.072633885
54	0xbd3ff022	-0.046859868
55	0xbd8e18c8	-0.069383204
56	0xbdaf4295	-0.085576214
57	0x3d012116	0.031525694
58	0xbc11aaa8	-0.008890785
59	0xbd6a56a4	-0.057211533
60	0xbd7d5b6c	-0.061854765
61	0x3d6fbbba	0.05852864
62	0x3d9e5f7d	0.07733057
63	0x3cb5c110	0.022186786
